analysis/result/v1.0/fold1_fc_weight.npy (npy, 409728 bytes, 1 tensors)

array f4 [200, 512]
-0.03907502 -0.028111005 0.010845632 0.03777199 -0.0004576937 -0.039931357 -0.02229475 0.04241846
-0.0030927567 0.013581616 -0.029927628 -0.04087974 0.0031291242 0.013869353 -0.030084088 0.04043282
-0.016900433 -0.028561555 0.0384095 0.015868504 -0.032292046 -0.018508552 -0.022910137 0.025556343
0.028726665 0.01997878 -0.0064042346 -0.022270579 -0.02100788 0.026700802 0.009166323 0.009621904
0.029316625 -0.024448428 0.026497355 -0.020639349 -0.008159967 -0.028808119 -0.0432662 0.024080142
0.02026175 -0.027428005 -0.019225579 0.034884457 0.0426695 -0.030413918 -0.01811953 0.015096495
0.042405024 -0.009920135 0.025304146 -0.01397668 -0.03798366 -0.004197747 -0.03352624 0.03357616
-0.030767463 0.013572681 -0.009548479 0.040973116 -0.034483112 0.023043916 -0.011750019 -0.0383255
-0.030086054 0.0023123499 -0.027615216 -0.003656176 -0.0403603 -0.039813925 0.0036073434 0.002648271
-0.039300635 -0.0046585333 -0.0062241466 0.020688629 0.010964029 0.0014301005 0.03785438 -0.043616183
-0.030135691 0.013216614 0.03911705 -0.004052994 0.015469179 0.022874339 -0.025759453 -0.025529431
-0.038557332 -0.010563834 0.02621515 0.012989338 -0.042347685 0.041165 0.043065522 -0.040708434
-0.034195855 0.043118265 -0.020014336 0.016785545 -0.0058839424 -0.010558897 -0.009072373 0.020058086
-0.0066794693 -0.03505283 0.021016141 0.028164377 -0.02610492 0.041513424 0.038703177 0.004049074
0.001219872 -0.0051002903 -0.015711412 0.007747992 -0.019798724 -0.01666624 -0.031511765 0.029733894
0.03333937 0.01478708 -0.04194937 0.025792664 -0.040863544 -0.024172924 0.014159413 -0.02144048
-0.03104904 0.013027933 0.021713307 -0.019168202 0.023399876 0.01927434 0.01151003 0.0071932604
-0.021452509 0.02601471 -0.01806718 -0.037683934 -0.012972552 0.011528085 6.014882e-05 0.030761298
0.012489623 0.023795052 -0.029823758 -0.019387892 0.031611837 -0.0266347 -0.013958989 0.006994296
0.04021306 -0.010004481 0.027167248 0.043121327 0.042798586 0.013893487 -0.0299786 -0.024890317
0.0035411518 -0.0073057874 -0.0061393627 -0.0055605336 -0.004773004 0.018523503 -0.0045172255 -0.030871924
-0.043872792 0.018837908 0.04134475 0.0077771735 0.03797739 -0.038686793 -0.0097231725 0.023111181
-0.017794456 0.025221027 -0.010703666 -0.036409535 -0.019121677 -0.0022764513 -9.592096e-05 0.022150844
-0.019967575 -0.01453079 0.012510639 -0.022661723 -0.017169477 0.026693363 0.014852191 0.033804744
0.022552941 -0.036823947 0.026084142 -0.026518553 -0.025710246 0.042897463 -0.039389845 0.008446449
0.033906914 0.031020544 -0.0043368423 -0.0007591385 -0.02637498 -0.007969237 0.013534164 -0.032828644
0.0030867246 0.036412947 -0.039030056 0.035815563 -0.007215751 0.009134417 -0.0057323403 -0.022961956
0.037564997 0.04208231 0.009464654 -0.03899606 0.037505437 -0.032093897 0.041396588 -0.023676403
-0.011834751 -0.036895256 -0.039972797 0.034157775 -0.017638577 0.021008318 -0.0031929135 0.03934369
-0.029279532 -0.013602906 -0.026110288 -0.038367435 -0.0038075147 -0.017038943 -0.03299917 0.032354396
-0.007343672 -0.041272327 -0.01776939 0.028233863 -0.029712921 0.019071195 -0.013825883 -0.038521454
0.030691113 -0.00061764097 -0.042663485 0.0045916513 -0.0037126474 0.041846253 0.0015382546 -0.029483432
00000000: 210d 20bd 0d49 e6bc e1b1 313c cdb6 1a3d
00000010: 9cf6 efb9 108f 23bd 7ba3 b6bc fbbe 2d3d
00000020: d9af 4abb 6d85 5e3c c92a f5bc 8471 27bd
00000030: fe11 4d3b 483c 633c e872 f6bc e29c 253d
00000040: c772 8abc ecf9 e9bc 4853 1d3d aafe 813c
00000050: aa44 04bd 3f9f 97bc 0aae bbbc 895b d13c
00000060: 2f54 eb3c 8aaa a33c 9dda d1bb ca70 b6bc
00000070: b818 acbc a4bb da3c 582e 163c 31a5 1d3c
00000080: 6b29 f03c 1248 c8bc fb10 d93c da13 a9bc
00000090: 62b1 05bc 01ff ebbc e637 31bd b843 c53c
000000a0: f8fb a53c b2b0 e0bc f67e 9dbc 01e3 0e3d
000000b0: 37c6 2e3d 9c26 f9bc 696f 94bc 4a57 773c
000000c0: e4b0 2d3d 1088 22bc a44a cf3c 72fe 64bc
000000d0: c194 1bbd 418d 89bb d052 09bd 2887 093d
000000e0: 0c0c fcbc f35f 5e3c 3971 1cbc 6dd3 273d
000000f0: 2a3e 0dbd 98c6 bc3c 2783 40bc 33fb 1cbd
00000100: 0777 f6bc cb8a 173b 4e39 e2bc 749c 6fbb
00000110: d850 25bd ed13 23bd 2e69 6c3b 9d8e 2d3b
00000120: b4f9 20bd 9ca6 98bb edf3 cbbb 337b a93c
00000130: 78a2 333c 3672 bb3a 320d 1b3d e2a6 32bd
00000140: 20df f6bc 7f8a 583c 3339 203d face 84bb
00000150: 7072 7d3c f762 bb3c 7d05 d3bc 1923 d1bc
00000160: 4bee 1dbd ee13 2dbc 27c1 d63c 3bd1 543c
00000170: c474 2dbd a29c 283d 7965 303d e3bd 26bd
00000180: f410 0cbd c79c 303d 1bf5 a3bc d781 893c
00000190: 16ce c0bb 39ff 2cbc 4aa4 14bc db50 a43c
000001a0: 73df dabb 8e93 0fbd 0b2a ac3c fbb8 e63c
000001b0: fcd9 d5bc fb09 2a3d 3987 1e3d 18ae 843b
000001c0: 1de4 9f3a 5620 a7bb 38b5 80bc dee2 fd3b
000001d0: ef30 a2bc a387 88bc 7b12 01bd 7f94 f33c
000001e0: dd8e 083d 8245 723c 1ad3 2bbd 234b d33c
000001f0: 8860 27bd 4c06 c6bc e2fc 673c f2a3 afbc
00000200: 8e5a febc 1d73 553c 1be0 b13c a206 9dbc
00000210: 19b1 bf3c 38e5 9d3c 9194 3c3c 71b5 eb3b
00000220: 2cbd afbc cd1c d53c 9f01 94bc 785a 1abd
00000230: d48a 54bc 4be0 3c3c 4e48 7c38 1eff fb3c
00000240: 47a1 4c3c d7ed c23c f450 f4bc 5bd3 9ebc
00000250: 6a7b 013d 0431 dabc 3eb4 64bc 6830 e53b
00000260: 73b6 243d d6e9 23bc d98d de3c fd9f 303d
00000270: 924d 2f3d 82a1 633c ae95 f5bc c7e6 cbbc
00000280: ab12 683b 6365 efbb b52c c9bb 2335 b6bb
00000290: dc66 9cbb 9abe 973c 3c05 94bb 1ee7 fcbc
000002a0: f5b3 33bd f551 9a3c 1d59 293d a9d7 fe3b
000002b0: 2e8e 1b3d 0b76 1ebd f14d 1fbc a953 bd3c
000002c0: aec5 91bc 549c ce3c 6e5e 2fbc 2a22 15bd
000002d0: 10a5 9cbc 8430 15bb 2c29 c9b8 b075 b53c
000002e0: 0a93 a3bc 8d12 6ebc 6cf9 4c3c 14a5 b9bc
000002f0: 01a7 8cbc 0aac da3c 9b56 733c d876 0a3d
00000300: f2c0 b83c b5d4 16bd 69ae d53c 703d d9bc
00000310: 4b9e d2bc 40b5 2f3d 3f57 21bd fa62 0a3c
00000320: fae1 0a3d cc1e fe3c 121c 8ebb ec00 47ba
00000330: 5810 d8bc 6791 02bc 66be 5d3c 5477 06bd
00000340: a54a 4a3b be25 153d fbdd 1fbd 57b3 123d
00000350: 1b72 ecbb 86a8 153c 5bd6 bbbb b61a bcbc
00000360: c1dd 193d 805e 2c3d a311 1b3c 55ba 1fbd
00000370: 4d9f 193d e474 03bd 788f 293d 04f5 c1bc
00000380: 8be6 41bc 7b1f 17bd 84ba 23bd 06e9 0b3d
00000390: c77e 90bc a319 ac3c 3340 51bb d926 213d
000003a0: a1db efbc b9de 5ebc 3ee5 d5bc 2c27 1dbd
000003b0: 7f87 79bb 4195 8bbc 232a 07bd 0b86 043d
000003c0: 30a3 f0bb 2c0d 29bd 1d91 91bc b44a e73c
000003d0: 8368 f3bc 323b 9c3c f585 62bc acc8 1dbd
000003e0: ee6b fb3c 2fe9 21ba e8bf 2ebd 9075 963b
000003f0: e34f 73bb fa66 2b3d 429f c93a 3d87 f1bc
